diabetes.pt (torch, 5663 bytes, 6 tensors)

weight f4 [20, 8]
0.71670604 -1.0190121 0.21718705 -0.11929336 -0.6530974 0.46922916 0.64216596 0.12646142
0.36897868 0.32118872 -0.44967973 -0.1077898 0.17304152 -0.25819236 -0.9940178 0.117172845
0.05671312 -0.09724161 0.020256614 -1.1802136 0.11938777 -0.5870305 2.6115167 -0.7566521
-0.63628554 -0.009315913 0.15662715 0.22591929 0.03949349 0.1298278 -1.9006046 -0.39658895
0.26417264 -0.10538086 -0.12172225 -0.123435184 -0.18394393 -0.0153849125 -0.19067895 0.10261753
-1.710363 0.381605 -0.034565944 0.07075824 0.065267675 -0.48418298 -1.1951437 -0.96479243
0.6831071 -0.43198478 -0.30096355 -0.28470176 0.10761932 0.73445034 -4.8519106 0.5648255
1.2494639 0.30135757 -0.24228603 0.4786583 0.260527 -0.7129663 0.45554864 0.395298
-0.86408347 0.0905462 -0.60747045 0.14082883 0.121577635 -0.3767061 3.5754704 0.58901304
1.6042535 0.062875286 0.14342125 -0.62415445 0.08616527 -0.34210992 -2.053032 0.21264115
-0.3702067 -0.5110038 0.17297977 0.21889783 0.055757068 -0.2957982 1.4093226 -1.1007932
-0.96093273 0.34674066 -0.43747762 -0.8953533 -0.21906652 0.35608324 -0.6781569 -0.21970832
2.749629 -0.008348484 -0.2622447 0.9515834 0.09826216 -0.43846643 -0.033641078 -0.061425213
0.14626147 -0.31500596 0.42879876 0.33485588 -0.07385087 -0.34381938 -2.5736818 0.24174522
-1.3253602 -0.024034137 0.18660057 0.3727119 0.22165714 -0.09203313 0.06801204 -0.390877
-0.6737076 0.2894974 0.08225977 0.117095426 -0.19671646 0.2949447 1.4288486 0.087583095
-0.66917855 0.23344107 0.023997528 0.14508714 -0.13964126 -0.25754553 -2.6069958 0.19971097
0.10648155 -0.24656753 0.032443345 -0.045393556 0.07644385 -0.13876458 0.21923432 -0.29843345
0.680395 -0.2015267 0.32594937 -0.19129036 0.0760704 0.3530197 -1.9946969 -0.50086874
1.2924727 -0.24864241 0.308786 -0.1582925 0.09389058 0.17697772 1.9844044 -0.24971867
00000000: 0c7a 373f fd6e 82bf 4866 5e3e 1450 f4bd
00000010: 6431 27bf ce3e f03e fd64 243f 1a7f 013e
00000020: c6ea bc3e d972 a43e 6c3c e6be e6c0 dcbd
00000030: cc31 313e ca31 84be f377 7ebf 51f8 ef3d
00000040: 044c 683d 9c26 c7bd 33f1 a53c 3d11 97bf
00000050: 9381 f43d a147 16bf 1723 2740 f4b3 41bf
00000060: 9ce3 22bf c5a1 18bc de62 203e 6357 673e
00000070: edc3 213d 94f1 043e 0347 f3bf b50d cbbe
00000080: a341 873e ecd1 d7bd 8449 f9bd 96cb fcbd
00000090: cc5b 3cbe 0011 7cbc 5841 43be 2429 d23d
000000a0: 2ded dabf bb61 c33e 0595 0dbd b2e9 903d
000000b0: 0fab 853d d5e6 f7be 78fa 98bf a3fc 76bf
000000c0: 1be0 2e3f 1c2d ddbe e517 9abe 6ec4 91be
000000d0: 8567 dc3d f004 3c3f da42 9bc0 6798 103f
000000e0: 6fee 9f3f 8a4b 9a3e d419 78be b312 f53e
000000f0: cc63 853e f684 36bf ac3d e93e 8064 ca3e
00000100: 9334 5dbf 4970 b93d 2f83 1bbf 6f35 103e
00000110: b2fd f83d 9fdf c0be 82d4 6440 8fc9 163f
00000120: 2e58 cd3f c2c4 803d 05dd 123e 96c8 1fbf
00000130: 6b77 b03d 0829 afbe e064 03c0 9abe 593e
00000140: bc8b bdbe 25d1 02bf 9c21 313e c126 603e
00000150: 8661 643d dd72 97be af64 b43f cbe6 8cbf
00000160: b0ff 75bf fe87 b13e 11fd dfbe e035 65bf
00000170: f952 60be 8b50 b63e b19b 2dbf 38fb 60be
00000180: ecf9 2f40 14c8 08bc f044 86be f89a 733f
00000190: ac3d c93d ac7e e0be 3acb 09bd 0199 7bbd
000001a0: 91c5 153e 7648 a1be 838b db3e 3b72 ab3e
000001b0: 203f 97bd 1809 b0be 34b7 24c0 0f8c 773e
000001c0: 67a5 a9bf 3de3 c4bc 3814 3f3e 18d4 be3e
000001d0: 17fa 623e de7b bcbd e549 8b3d 0821 c8be
000001e0: 1a78 2cbf 0139 943e cf77 a83d bacf ef3d
000001f0: 0a70 49be fe02 973e 83e4 b63f c45e b33d
00000200: 494f 2bbf 2d0b 6f3e 7796 c43c b991 143e
00000210: 1efe 0ebe 02dd 83be 05d9 26c0 0881 4c3e
00000220: 0013 da3d 337c 7cbe 50e3 043d 98ee 39bd
00000230: 988e 9c3d 4d18 0ebe f67e 603e 45cc 98be
00000240: 5e2e 2e3f 045d 4ebe d6e2 a63e 9fe1 43be
00000250: ccca 9b3d 00bf b43e 3a52 ffbf ef38 00bf
00000260: bf6f a53f 1e9c 7ebe 3319 9e3e 6e17 22be
00000270: b449 c03d a639 353e f700 fe3f 40b6 7fbe

bias f4 [20]
-0.2287691 -0.9955002 -0.50900996 2.8569453 0.080328345 2.0209782 -2.2239451 -0.82339776
1.206119 1.2237457 -0.01086985 -1.2648698 1.7163783 3.473942 -1.7766707 -1.5235941
1.7336987 -0.055208296 3.1505976 -1.206714
00000000: 7242 6abe 1ad9 7ebf 7a4e 02bf 31d8 3640
00000010: 3083 a43d b557 0140 1e55 0ec0 32ca 52bf
00000020: 1b62 9a3f b3a3 9c3f 7517 32bc 41e7 a1bf
00000030: 49b2 db3f 1155 5e40 f269 e3bf 2205 c3bf
00000040: d7e9 dd3f 1822 62bd 64a3 4940 9b75 9abf

weight f4 [20, 20]
-0.26089644 0.21320075 0.14817376 0.49642777 -0.18001318 -0.0141234305 -0.62000936 0.11663587
-0.13402647 0.12505624 1.3127508 0.42060858 -0.01271234 -0.19217783 0.20752656 -0.34120265
0.10965083 -0.11944218 -0.15863526 0.2980194 -0.014072094 -0.13424884 0.31453958 0.15453625
0.09506208 0.8931725 0.13439676 0.09856052 -0.18303134 0.102853544 0.4910137 0.23782912
-0.07156444 0.075628884 -0.40211502 0.045036133 -0.110051386 -0.15591198 0.20037404 -0.84729934
0.021811444 0.059231233 -0.044343825 0.04141778 0.20327401 0.0030119345 0.09981282 -0.26278177
-0.104451336 -0.15341233 0.14848824 0.19023374 -0.063616134 0.041192755 0.086677395 -0.14331238
0.017064305 0.16119269 -0.20127495 -0.21146171 -0.31202883 0.026775518 0.039913744 -0.16461283
0.142566 -0.28010884 -0.110576235 -0.1741198 0.06440529 -0.3430799 0.18884398 -0.32613528
-0.066902824 -0.15544115 -0.08093794 0.09393475 -0.022282038 0.047580063 0.061803196 0.06577925
0.6053805 0.007597133 -0.0983363 -0.06864246 -0.18264818 -1.2517723 0.95139295 0.17459282
-2.3221376 -0.4347101 -0.8044935 0.042792767 -0.11481153 -0.010526597 0.1598945 -0.1698606
0.17928192 -0.011349484 -0.10872816 0.5227704 0.51715755 0.08205897 -0.18687753 -0.16239621
-0.0057946146 0.20430492 0.45070523 0.17399436 0.04374796 0.1397694 -0.9879308 -0.10747848
-0.21111426 1.0875847 -0.08425435 0.13294725 0.28860334 -0.16257675 -0.2465267 -0.31131014
-0.15114382 -0.05741183 0.1080874 0.059542295 0.1057848 -0.50182384 -0.5125038 0.17236528
-0.0062162536 -0.5021603 1.1241273 0.5763883 0.076922484 0.50342095 -0.0032294858 0.021041062
0.11647178 0.1551468 -0.0631205 -0.1898125 0.24789321 0.046238862 -0.029995397 -0.041853197
-0.12302731 -0.22261818 -1.9531194 -0.28400177 0.110751644 -0.044816747 0.37825185 -0.07003167
-0.25241882 -0.21612269 -0.26675284 0.1270276 -0.17746812 -0.10309565 -0.13683501 0.12498038
0.083080776 -3.2872992 -0.010765184 0.85436445 -0.18361723 -0.14826266 -0.42693257 -0.24901618
0.06982234 -0.007856647 0.096030384 -1.5290778 -3.0580566 -0.5663333 -0.9560688 0.094567
0.095759265 -0.051296905 0.5068866 -3.2347093 -0.10720165 -0.016852379 -0.10209309 -0.013494932
-0.1781485 -0.07593256 -0.112255484 -0.26215777 0.119333714 -0.050760105 0.14114448 0.11085445
0.03517154 0.14343244 -0.16285597 -0.061873056 -0.23444442 0.19816312 -0.048542257 -0.21383229
-0.948557 -0.8723698 -0.1936799 0.11313549 -0.17340696 -2.0513272 -0.4448184 -0.74189967
0.11645981 0.24625248 0.19260913 0.6587083 -0.66472447 1.0605513 0.09915344 -0.053802095
-0.2304801 -0.19230933 -0.09960313 0.8317119 -0.17154115 0.21818693 0.31288937 0.03210572
0.17586952 0.10698459 -0.40216887 0.25788525 -0.32978764 -0.40896887 0.98568714 -0.74729854
0.21715301 1.2575268 0.08133325 -0.37847903 -0.10108367 -0.1591304 0.19049534 -0.3295377
0.13513944 0.09562687 -0.075928465 -0.29234517 -0.17202726 0.16866605 0.45098284 0.1539888
-0.10284273 0.09649563 -0.81271636 -0.092991084 0.08745427 0.7103265 0.10170249 0.11397933
00000000: 3894 85be 4c51 5a3e ddba 173e c82b fe3e
00000010: 6055 38be f665 67bc efb8 1ebf c9de ee3d
00000020: 3c3e 09be be0e 003e 3808 a83f 025a d73e
00000030: 6b47 50bc 44ca 44be d881 543e 1db2 aebe
00000040: 9d90 e03d 1a9e f4bd 4871 22be 0096 983e
00000050: a48e 66bc 8778 09be 550b a13e c03e 1e3e
00000060: e8af c23d f4a6 643f 4e9f 093e 19da c93d
00000070: 916c 3bbe e1a4 d23d 2666 fb3e 7a89 733e
00000080: 6190 92bd 51e3 9a3d 05e2 cdbe cf77 383d
00000090: 9f62 e1bd 64a7 1fbe da2e 4d3e 9ce8 58bf
000000a0: eaad b23c 739c 723d dfa1 35bd b1a5 293d
000000b0: 1027 503e e063 453b aa6a cc3d 558b 86be
000000c0: 95ea d5bd 1f18 1dbe 4d0d 183e a2cc 423e
000000d0: 2d49 82bd bcb9 283d eb83 b13d 7bc0 12be
000000e0: 71ca 8b3c b20f 253e 051b 4ebe 6b89 58be
000000f0: 3ec2 9fbe 5558 db3c 987c 233d 4490 28be
00000100: d2fc 113e 6d6a 8fbe cb75 e2bd 764c 32be
00000110: ece6 833d 2ba8 afbe 5160 413e 34fb a6be
00000120: 5904 89bd f72b 1fbe cac2 a5bd dd60 c03d
00000130: d288 b6bc 50e3 423d 5925 7d3d 45b7 863d
00000140: 37fa 1a3f 5ff1 f83b 8b64 c9bd 6b94 8cbd
00000150: 2008 3bbe 133a a0bf 7d8e 733f 76c8 323e
00000160: e79d 14c0 5292 debe 49f3 4dbf 7847 2f3d
00000170: 4f22 ebbd bf77 2cbc 62bb 233e f0ef 2dbe
00000180: ae95 373e 30f3 39bc dfac debd 48d4 053f
00000190: 7064 043f 890e a83d d35c 3fbe 314b 26be
000001a0: c0e0 bdbb 4f35 513e d6c2 e63e 942b 323e
000001b0: 1031 333d b61f 0f3e 08e9 7cbf ad1d dcbd
000001c0: 562e 58be fa35 8b3f 8b8d acbd 5323 083e
000001d0: d1c3 933e 857a 26be 7f71 7cbe 0b64 9fbe
000001e0: 72c5 1abe ab28 6bbd ed5c dd3d 9fe2 733d
000001f0: b4a5 d83d 8777 00bf 7333 03bf 8680 303e
00000200: b7b1 cbbb 948d 00bf 67e3 8f3f 2f8e 133f
00000210: 8989 9d3d 32e0 003f c8a5 53bb 4e5e ac3c
00000220: c288 ee3d cede 1e3e 5245 81bd 355e 42be
00000230: b8d7 7d3e f664 3d3d e8b8 f5bc 426e 2bbd
00000240: bef5 fbbd 05f6 63be d1ff f9bf ae68 91be
00000250: c2d1 e23d c491 37bd 3aaa c13e c46c 8fbd
00000260: 0a3d 81be 444f 5dbe d493 88be 8613 023e
00000270: 34ba 35be d023 d3bd 7a1e 0cbe b7f5 ff3d
00000280: 4126 aa3d 1c63 52c0 7460 30bc a1b7 5a3f
00000290: 2806 3cbe 2bd2 17be e896 dabe 19fe 7ebe
000002a0: 04ff 8e3d 2ab9 00bc 94ab c43d d2b8 c3bf
000002b0: 33b7 43c0 38fb 10bf edc0 74bf 58ac c13d
000002c0: 6f1d c43d b41c 52bd 52c3 013f 7a05 4fc0
000002d0: 8a8c dbbd 000e 8abc 2f16 d1bd d919 5dbc
000002e0: 8f6c 36be 8882 9bbd 34e6 e5bd 8b39 86be
000002f0: 3c65 f43d d4e9 4fbd 2e88 103e a807 e33d
00000300: 0810 103d f4df 123e b7c3 26be 9a6e 7dbd
00000310: 3312 70be 46eb 4a3e 3fd4 46bd daf6 5abe
00000320: a2d4 72bf a153 5fbf 0654 46be 94b3 e73d
00000330: 9891 31be f248 03c0 3dbf e3be 23ed 3dbf
00000340: 7b82 ee3d 9c29 7c3e 543b 453e 1ba1 283f
00000350: 622b 2abf 25c0 873f f510 cb3d 965f 5cbd
00000360: fa02 6cbe bdec 44be bafc cbbd 12eb 543f
00000370: 7ca8 2fbe 656c 5f3e 0933 a03e 4a81 033d
00000380: 2417 343e bd1a db3d 14e9 cdbe 8909 843e
00000390: edd9 a8be 5e64 d1be fe55 7c3f f54e 3fbf
000003a0: 5c5d 5e3e a3f6 a03f 0c92 a63d 01c8 c1be
000003b0: f504 cfbd 14f3 22be 3611 433e 2ab9 a8be
000003c0: fe61 0a3e 05d8 c33d 6280 9bbd 44ae 95be
000003d0: ea27 30be cbb6 2c3e 39e7 e63e 3daf 1d3e
000003e0: 369f d2bd 809f c53d 2e0e 50bf 1c72 bebd
000003f0: 391b b33d f5d7 353f 6549 d03d ff6d e93d

bias f4 [20]
1.6688151 1.974895 -0.085710056 -0.1779602 -1.7154411 -1.0816602 1.1678567 -0.23013178
0.45645314 -0.16300617 0.68486977 2.156584 -1.2140033 -0.16989599 -0.74141294 -2.361611
-0.06245468 -0.14672723 0.118866906 1.7848945
00000000: bc9b d53f 5cc9 fc3f c188 afbd 333b 36be
00000010: 9393 dbbf d773 8abf 547c 953f aaa7 6bbe
00000020: 3ab4 e93e 17eb 26be a053 2f3f 7905 0a40
00000030: 7664 9bbf 37f9 2dbe 3dcd 3dbf a224 17c0
00000040: 7bd0 7fbd aa3f 16be 7e70 f33d 6c77 e43f

weight f4 [2, 20]
0.26047793 0.73805237 -0.14511767 0.14609246 -1.4370081 -0.06319942 0.08968909 0.12022136
0.839111 -0.10186874 2.6592557 0.2840375 -0.2470627 0.018267602 -0.20364302 -0.4959909
-0.62458205 -0.061499402 0.055825498 0.45742226 -0.25155023 -0.36638543 -0.09613634 0.055473384
1.1228552 0.28225762 -0.25591165 0.08060007 -0.42098686 -0.16168787 -2.7112715 -0.33754948
0.103707016 0.034161065 0.2983884 0.64053506 0.75653774 0.09325552 0.056279164 -0.3768261
00000000: 5d5d 853e 00f1 3c3f ba99 14be 4399 153e
00000010: e2ef b7bf b36e 81bd eaae b73d 9e36 f63d
00000020: facf 563f 8fa0 d0bd 3f31 2a40 5d6d 913e
00000030: 01fe 7cbe f0a5 953c cc87 50be 85f2 fdbe
00000040: 9ce4 1fbf cce6 7bbd 47a9 643d 4033 ea3e
00000050: 31cb 80be df96 bbbe 21e3 c4bd 0f38 633d
00000060: b8b9 8f3f 1284 903e da06 83be a611 a53d
00000070: 978b d7be 8191 25be 7985 2dc0 49d3 acbe
00000080: 5864 d43d 79ec 0b3d 5dc6 983e 1bfa 233f
00000090: 75ac 413f c0fc be3d fb84 663d 5aef c0be

bias f4 [2]
1.151069 -1.4961679
00000000: 3b56 933f 6e82 bfbf
